model/model.pth (torch, 17216 bytes, 4 tensors)

linear1.weight f4 [256, 11]
000000 ee 8e 9f 3d 6a b2 f5 3e b8 22 f6 3e ce 2e 4e be
       0.077909335 0.47987682 0.48073363 -0.20135042
000010 ed 6b af be 73 d3 a0 be d4 ba 51 3e 6e d1 f2 3e
       -0.34262028 -0.31411323 0.20481426 0.47425407
000020 76 8c ff 3e 63 bb e8 3e e6 69 c4 3e 06 3c a1 bd
       0.4991185 0.45455465 0.38362044 -0.07872777
000030 ad 71 8e be e6 c6 d7 3d 53 11 9a be d3 52 8c bd
       -0.27821103 0.10535984 -0.30091342 -0.06851735
000040 0d 06 f0 3e 3d 2e 84 be 39 7e ed be 66 10 ac 3e
       0.46879616 -0.25816527 -0.46385363 0.3360626
000050 09 66 20 be 1b 8c 73 be 72 cf 60 be 12 73 e2 3d
       -0.15663923 -0.23783915 -0.21954134 0.11057104
000060 d0 b3 a5 3d 34 dd 8f 3e ec 99 b2 be 0c d4 cb be
       0.08090937 0.28098452 -0.34883058 -0.39810216
000070 aa bf 8c be d8 19 0c bf b8 02 9e be 12 a7 db be
       -0.27489978 -0.54726934 -0.3086145 -0.42900902
000080 09 0e cc 3d ca ec 37 be f2 5f c0 3e 89 c9 01 3f
       0.099636145 -0.17961422 0.375732 0.50698143
000090 79 52 8e bb 81 ca e2 bd f0 92 9b be af 2e 04 3e
       -0.0043433276 -0.11073781 -0.30385542 0.12908433
0000a0 7a 48 b5 3e 4d 76 42 3e 63 be 6a 3e f4 ec 59 3e
       0.35406858 0.1899044 0.2292419 0.21281797
0000b0 1f fb fd 3c 64 e2 3e be 33 1d 28 be 87 4e 4c bd
       0.031003533 -0.18641049 -0.16417389 -0.049879577
0000c0 a8 f8 b9 bd 6d 56 fc 3e 86 87 c5 be ec 10 92 be
       -0.090806305 0.49284688 -0.3857996 -0.28528535
0000d0 4d 3e 4d be 5c fe ac 3e d8 0b fb be 1b f4 6a be
       -0.20043297 0.3378781 -0.49032474 -0.22944681
0000e0 8b b6 85 be 38 f8 96 be 76 71 48 be 45 fa b9 bd
       -0.26115832 -0.2948625 -0.19574532 -0.09080938
0000f0 e7 50 d4 bd 29 eb 44 be 8b 96 01 3e d0 b3 8a bc
       -0.103669934 -0.19230331 0.12655084 -0.016931444
000100 bf ba 6d be c3 de 14 3d e4 1c 23 bd 4d 99 40 be
       -0.23215769 0.036345255 -0.039822474 -0.1880848
000110 19 9b 57 3e d0 31 ad 3e ff 81 15 bf 3a 0a 9d 3e
       0.21055259 0.33827066 -0.58401483 0.30671865
000120 92 00 89 3c 04 0c a3 be 03 5c 56 be 12 d9 e2 3e
       0.016723905 -0.31845105 -0.20933537 0.44306237
000130 32 30 ed be 6d 5b aa bc 9d 53 47 bd a3 79 7c 3e
       -0.46325833 -0.020795548 -0.048663724 0.24655776
000140 4e b6 d1 be cd 4d 4e be 72 61 46 3e fb 4a dc 3d
       -0.409594 -0.20146866 0.1937311 0.10756489
000150 a0 fb 72 be 5e d5 92 be c5 d8 1f 3e e0 38 46 be
       -0.237288 -0.2867841 0.15610035 -0.19357634
000160 2a 49 01 3d 58 9c f2 3e b1 71 89 3e 2f 39 4b 3e
       0.031563915 0.47384906 0.26844552 0.19846033
000170 9a 4f 3b be 9b e9 fd bd 07 f4 8a 3d 8a 45 cc bd
       -0.18292084 -0.12398072 0.06784826 -0.09974201
000180 0d 30 d3 3e 23 56 8e 3e 4f 00 af 3d cc 3b 3b 3d
       0.41247597 0.27800092 0.08544981 0.045711324
000190 a1 a2 19 3e 3d c4 e4 bd b9 33 76 3d e7 b3 8e be
       0.15003444 -0.11170242 0.06010792 -0.2787163
0001a0 79 84 60 3e c8 8e 31 be 06 5c 03 3e a9 25 d1 3b
       0.21925534 -0.17339623 0.12828073 0.0063826633
0001b0 30 e8 01 bf 3d 19 f7 bd 5a 03 95 3e 3a 42 74 3d
       -0.50744915 -0.12065361 0.2910412 0.05963347
0001c0 df 91 f9 bc 3e 26 d2 be 32 da 5c bd bf 65 3a be
       -0.030465065 -0.410448 -0.053919025 -0.18202876
0001d0 ba d9 8f 3e 83 b9 05 3f 38 22 18 3e 13 c1 99 3e
       0.280958 0.52236193 0.14856803 0.30030116
0001e0 39 ed be be 45 e0 76 be 80 2c 20 be 3f ae 1a be
       -0.37290362 -0.2410899 -0.15641975 -0.15105532
0001f0 73 84 84 3e 2b e9 02 bf c1 8b af bd 5d 35 a9 3d
       0.258823 -0.51137036 -0.08571578 0.08262131
000200 6f 6a 8f be 7d d0 03 3f dd c2 db 3d bb 1e 1d be
       -0.2801089 0.5149 0.107305266 -0.15343754
000210 1f 9d ab 3d eb 23 a4 3d e5 ba d8 bd 0e aa 79 3e
       0.08379578 0.08014663 -0.10582522 0.24381277
000220 31 59 f3 be 82 9c aa be a4 31 82 3e c9 9b c3 bd
       -0.47528985 -0.3332253 0.25428498 -0.09551198
000230 e8 91 a9 be ab 1d 27 bf cd 1b dc 3c 55 c6 58 be
       -0.3311913 -0.65279645 0.026868725 -0.21169408
000240 48 62 e6 3c 6c 40 c0 3d 29 e1 7a be 18 7d 69 3e
       0.028123036 0.093872875 -0.24499954 0.22801626
000250 2f c1 bd bd 50 10 c0 3c b0 cd ff be e7 a1 30 3e
       -0.092653625 0.023445278 -0.49961615 0.17249261
000260 e2 66 c4 be 18 24 ad 3d 49 19 9d 3e de d2 30 be
       -0.38359743 0.0845415 0.30683354 -0.1726794
000270 dd 99 da be 8b d8 81 3e 7e cb 9c bd d5 6c c9 be
       -0.42695513 0.25360522 -0.076560006 -0.39340845
000280 bf 17 64 3e ac d5 e9 bd 40 8b 80 3e 27 58 b6 3e
       0.22274683 -0.11417708 0.2510624 0.3561413
000290 29 a7 6f 3d e7 59 06 3d 20 38 11 be 4c cc 64 3e
       0.058509026 0.03280058 -0.14181566 0.22343558
0002a0 3f 83 58 bc cf 21 67 3e ec 60 a7 3e 16 71 87 be
       -0.013214885 0.2257149 0.32691133 -0.26453465
0002b0 88 98 b6 be d3 57 42 3e 2e 91 99 3e 81 2e 52 be
       -0.35663247 0.18978815 0.29993576 -0.20525552
0002c0 fb 4d 23 3e bf 67 98 be a2 7b e2 3d 55 e1 20 3e
       0.15947716 -0.29766652 0.11058737 0.15710957
0002d0 f8 e4 96 3e ae a9 1d 3e 04 7e ee be 32 f0 f5 be
       0.29471564 0.15396759 -0.46580517 -0.48034817
0002e0 e9 ea 44 be 86 ce 80 bc e9 39 95 be c2 c7 a2 3e
       -0.19230236 -0.015723478 -0.29145744 0.31793028
0002f0 e6 8e 11 3e 9f 5e c3 be b0 0d 26 3e 46 b4 3c be
       0.14214668 -0.38158128 0.16216159 -0.18428144
000300 38 c2 70 bd e8 d1 d6 3d ac 42 da 3d bc a2 0d be
       -0.05877897 0.10489255 0.10657248 -0.1383161
000310 b5 2b 9c be 3a 4e b6 bd 44 86 4b be bb d0 2f 3d
       -0.30502096 -0.08901639 -0.19875437 0.04292367
000320 7a 1c 73 be d0 6b aa 3c d8 08 4e 3e aa 77 3c 3e
       -0.23741332 0.020803362 0.20120561 0.18405023
000330 fe 16 96 be ec 7b fb 3c c7 e6 19 3d 0f f2 07 be
       -0.29314417 0.030698739 0.037573602 -0.13275932
000340 3f fe 8a be cd b4 f1 bd 26 4b c3 ba 5a f5 c8 3d
       -0.271471 -0.11802063 -0.0014899715 0.09812422
000350 bf b3 a3 3e d5 c1 9e be ea 56 57 3e ba 71 83 3e
       0.31973073 -0.31007257 0.21029249 0.25672704
000360 35 01 4c bd 4a b8 ac be a5 0f b7 3d d0 6c 31 bd
       -0.04980584 -0.3373435 0.08938531 -0.043316662
000370 24 c2 7f be 2d c6 83 3e 8f bf 70 be ba 67 4f 3e
       -0.24976403 0.25737134 -0.23510574 0.20254412
000380 fa 44 94 3e fb 04 5c be fb 95 03 be 2a 6e b4 3e
       0.28958875 -0.21486275 -0.12850182 0.35240299
000390 08 05 83 3e a8 a4 b5 be e1 71 8d be c2 ac df 3e
       0.25589776 -0.35477185 -0.27625945 0.4368649
0003a0 63 6c fa 3c bc f9 1c bd 9b a1 bd 3e 3a a7 ac be
       0.030569261 -0.038324103 0.37037358 -0.33721334
0003b0 f4 f8 19 be 82 21 6a 3e 34 f9 cf bd c6 db eb bd
       -0.15036374 0.22864345 -0.101549536 -0.11516528
0003c0 f7 b7 ca 3e 58 4b e4 bc 66 c5 1f 3e b7 f9 f6 bd
       0.3959348 -0.027867958 0.15602645 -0.12059348
0003d0 33 bb c7 3e 53 be b9 3c ff c1 83 be 09 38 4a be
       0.3901001 0.022673761 -0.25733945 -0.19747938
0003e0 93 4c 48 3e cc 39 57 3e 22 0e bf 3e 01 e8 c8 3e
       0.19560461 0.21018142 0.3731547 0.39239505
0003f0 bb 87 4a 3c ba 8e 9b 3e 4d 6d 0d bf 3c d4 f1 3e
       0.012361462 0.3038233 -0.55244905 0.47232234

linear1.bias f4 [256]
000000 fa 70 2a be 05 20 30 be 26 e2 88 bd ba d1 1b bd
       -0.1664466 -0.17199714 -0.066837594 -0.038041808
000010 a9 62 a2 bd 49 a1 b6 bd 81 33 29 3d d8 dd e3 bb
       -0.07928974 -0.089174815 0.041308884 -0.006953936
000020 74 4e 81 be 5d df 0d be 3c 52 b1 bd 7f 01 84 bc
       -0.25255167 -0.13854738 -0.08658263 -0.016113995
000030 01 99 9e 3e 38 f0 1c 3e bc d3 3d be a0 3c 3e bd
       0.30976108 0.15326011 -0.18537802 -0.046444535
000040 32 50 92 3e 0d 6a 23 3e 8c d7 95 be cc 72 a3 3d
       0.2857681 0.15958424 -0.29266012 0.0798088
000050 67 32 5c bd 21 f7 83 be f7 23 21 be 03 11 73 bd
       -0.053759005 -0.25774482 -0.15736376 -0.059342396
000060 a1 17 1c 3d ec 93 00 bd 7a e9 dd 3e 44 ff 57 be
       0.03810847 -0.03139107 0.4334219 -0.2109347
000070 63 4f 8a be f9 10 9a be c0 28 a9 bc bb 4c 48 be
       -0.27013692 -0.30091074 -0.020649314 -0.1956052
000080 83 0d 36 3d 3c 1f 56 be 3a 39 2b 3d 42 4c ad 3e
       0.04444648 -0.20910352 0.041802622 0.33847243
000090 26 16 87 3e 3b aa 97 bd ad 7d c5 3e d7 a1 e7 bd
       0.26384085 -0.07405516 0.38572446 -0.113101654
0000a0 63 6a 08 3f b6 ae 94 be 2b 61 d7 bd 91 39 2e 3e
       0.53287333 -0.29039544 -0.1051658 0.17014147
0000b0 b4 5f 19 be 86 67 be bc 27 dc 13 be 01 d2 cd 3b
       -0.14977914 -0.023242723 -0.1443945 0.006281138
0000c0 db d1 55 be 34 87 e1 bd da e4 57 be ab 37 93 be
       -0.20880835 -0.11012116 -0.21083394 -0.2875341
0000d0 ac 6c 0b 3f a3 2f 70 3d 55 a5 aa bd 21 72 59 be
       0.54462695 0.05863918 -0.08332316 -0.21234943
0000e0 c1 82 38 be c3 f3 9d be b5 c9 d8 bc c2 15 25 be
       -0.18018629 -0.30850038 -0.026463369 -0.16121581
0000f0 ed d1 29 be 83 b5 25 be a0 20 98 be 97 e5 fd 3c
       -0.16583987 -0.16182522 -0.2971239 0.030993266
000100 0b 7c ec bd 81 ef c1 be 1a 2e 98 bd 98 41 a2 3d
       -0.11547097 -0.3787804 -0.07430668 0.07922667
000110 3d 15 eb 3e d5 a9 23 3e 85 8c 67 3d 94 cb 5a be
       0.4591464 0.15982755 0.056530494 -0.21366721
000120 ce 9c 94 3c 7c de 6b be da 89 b5 be 54 5f 14 3d
       0.018141177 -0.2303409 -0.35456735 0.036223724
000130 e4 85 b8 3c 3b c8 8f be db 0c 6d 3d bb c5 37 be
       0.022524782 -0.2808245 0.057873588 -0.17946522
000140 bf e3 4e be f8 90 62 be 29 6c 98 bc 4f c4 8e be
       -0.20204066 -0.22125614 -0.018606262 -0.27884147
000150 3b dc 4d bd b8 1d 67 be 02 2a 79 3c 0b ec 8f 3e
       -0.050258856 -0.2256993 0.015207769 0.28109774
000160 ac dc 3c 3e 1d c8 9e 3d f7 2e b2 3e 52 02 31 bd
       0.18443555 0.07753012 0.34801456 -0.043215103
000170 39 ce b0 3d d6 62 75 be 2f 3f d6 bd 7b 9f 97 3e
       0.08633084 -0.23963484 -0.1046127 0.2961386
000180 45 67 82 bd 23 5b 86 bd 5c ce 20 be a9 a6 51 be
       -0.06367353 -0.06560352 -0.1570372 -0.20473732
000190 5b a6 2e bc b8 4f ab 3b de b1 94 be c9 63 ff bd
       -0.010659779 0.005228009 -0.29041952 -0.124702044
0001a0 36 ef 67 be 59 8c 5f be da 0a 0c be 4e cd 20 be
       -0.22649845 -0.21830882 -0.13676015 -0.15703318
0001b0 d7 25 87 be 63 9c 7d 3e 77 34 30 3c 1a e2 23 3e
       -0.26396057 0.24766688 0.010754696 0.1600422
0001c0 f4 66 de 3c 87 8f 9b 3e c6 2b ab bd 16 62 f3 bd
       0.027148701 0.3038294 -0.083579585 -0.11883943
0001d0 90 6d b7 be a5 18 31 bc c5 ec 10 3e 7d 84 cd bd
       -0.35825777 -0.010809098 0.1415282 -0.10035036
0001e0 5c d9 60 bd b8 7b 3b bd 04 6a 47 be 5a bc ad bd
       -0.05489479 -0.045772284 -0.19474036 -0.08483191
0001f0 57 48 cc bd 8e c3 c2 bd 08 e0 99 3e 47 6c 55 be
       -0.09974735 -0.09509955 0.30053735 -0.20842086
000200 10 5c cf bd c8 f3 54 3e 95 2b a6 be ba 45 fa bd
       -0.101249814 0.2079612 -0.32455125 -0.122203305
000210 5e 04 e4 3e 5b ad 0c bd c5 94 9d be 14 6e cb bd
       0.44534582 -0.034345012 -0.30777565 -0.09933105
000220 41 69 82 3d d7 a5 13 be e5 16 d9 3d 88 fb 9c bd
       0.06367732 -0.14418732 0.1060007 -0.07665163
000230 b8 91 11 3e 33 5c 10 be 36 31 b3 bd f0 60 d9 bd
       0.14215744 -0.14097671 -0.087496206 -0.106141925
000240 58 8f c8 3d 0b 20 9a be 55 74 8a 3e 15 3e bc be
       0.09792966 -0.30102572 0.2704188 -0.36766115
000250 0a 78 89 3d b7 f4 89 bc 4f ab 80 be 09 86 36 3d
       0.06712349 -0.016840322 -0.25130698 0.04456142
000260 2e e6 ce be 66 dc 81 be f6 d1 af be 5a 14 2e be
       -0.40409988 -0.25363463 -0.34339875 -0.16999951
000270 f6 8a 18 3f d4 2b 1b bb 97 71 8e 3d 5f de cf 3e
       0.5958704 -0.0023677247 0.06955259 0.40599343
000280 65 e7 c2 be 5d d6 71 bd 2d dd b1 be 67 63 60 bd
       -0.38067165 -0.059042323 -0.34739056 -0.054782297
000290 61 f4 69 3e 41 e5 b9 bd 3d ff 6d be 7d 26 b0 3d
       0.2284713 -0.0907693 -0.23241897 0.08601091
0002a0 93 cb 16 bb e2 1e 0a bc e4 72 24 be d7 60 27 be
       -0.0023009523 -0.008430215 -0.16059452 -0.16345535
0002b0 fd a9 ed 3c 3d 87 2a 3d 36 4d b8 3c a2 fb fb bc
       0.02901172 0.04163288 0.022497755 -0.030759636
0002c0 d8 e2 d5 bd 63 2c e7 3e 08 79 b8 be b4 0f 18 bd
       -0.10443658 0.45151052 -0.3602984 -0.03712435
0002d0 1d 64 7a be aa a5 97 be 3b d4 02 be ea ee 42 3d
       -0.24452253 -0.2961858 -0.12776272 0.047591127
0002e0 b5 00 8b 3e 10 a5 4e bc 10 aa 89 3a f4 0e 9e 3e
       0.27148977 -0.012612596 0.0010502953 0.30870783
0002f0 9d 62 e2 be 75 76 18 3f 6a 94 9b be 18 73 39 3e
       -0.4421586 0.5955575 -0.30386668 0.18110311
000300 be a3 01 be bf de b5 3c f8 96 f0 3d e4 d2 f8 3e
       -0.12660119 0.02220094 0.11747545 0.48598397
000310 9f 48 a1 3e 84 ba b7 bb 6e 70 f7 3b 78 69 9e 3d
       0.31500718 -0.005606951 0.0075512445 0.0773496
000320 1d bf b1 3d 69 e6 33 be f8 d2 63 3e 60 60 b0 3e
       0.0867903 -0.17568363 0.22248447 0.34448528
000330 94 32 bd bd f0 9e 14 be 34 24 cf bd e0 41 12 bd
       -0.09238163 -0.14513755 -0.10114327 -0.035707355
000340 86 7c 8c be 74 05 5d bc 67 c8 b9 3e a7 ac a1 be
       -0.27438754 -0.01349007 0.36285707 -0.31577036
000350 4f 3d ce be 24 27 8a be 55 6b cf 3e 0d 4b 28 be
       -0.4028115 -0.26982987 0.40511575 -0.1643488
000360 39 10 e3 be 8c 85 36 be e0 b3 77 3e 21 2c b6 be
       -0.44348314 -0.17824382 0.2418971 -0.35580543
000370 a4 89 bf bd 16 57 0d be 2f 20 99 be 55 d6 b1 3e
       -0.09352425 -0.13802752 -0.29907367 0.34733835
000380 49 e8 98 be 1e e7 8b bd 90 dd 2a be 92 da af be
       -0.2986472 -0.068311915 -0.16686082 -0.34346443
000390 c8 3b 0b be 9d 0c f3 3d 8b 2d 5c be 4c 60 3a be
       -0.13597023 0.1186764 -0.21501748 -0.18200797
0003a0 00 3b 23 3e 7d 8c 1a 3d 3d fa c7 3e 37 6e 8c 3d
       0.15940475 0.037731636 0.39058104 0.06856959
0003b0 8b 35 8c be bf 17 a4 3e e4 75 1c be cf 6f 51 3d
       -0.273846 0.32049367 -0.15279347 0.05113202
0003c0 24 00 2e be e1 42 e3 bd 5c 07 2f 3e c4 73 2e be
       -0.16992241 -0.110967405 0.17092651 -0.17036349
0003d0 fc a0 16 be 88 67 fd 3b a7 f5 c0 3e 54 94 8e 3e
       -0.14709848 0.007733289 0.37687418 0.2784754
0003e0 c4 cf 9e 3e 46 29 34 3e 66 af 84 be 0f b2 ab bd
       0.31017888 0.1759387 -0.25915068 -0.08383571
0003f0 27 5d 86 be 29 3e 63 be 38 eb 61 be 5a bd 79 3e
       -0.26242945 -0.22191681 -0.22062385 0.24388638

linear2.weight f4 [3, 256]
000000 1d e7 23 be 8c 43 4e 3d 5e 45 67 3d 18 99 f1 bc
       -0.16006131 0.050357386 0.056462638 -0.029491946
000010 2e ee af 3e 4f 92 21 3e 94 92 11 3e ff 1a 01 3e
       0.34361404 0.15778469 0.14216071 0.12607954
000020 8f 47 20 be 5b 9a 40 3d 48 b2 bb be 48 83 bb be
       -0.15652297 0.047022205 -0.36659455 -0.36623597
000030 0a d7 98 3e 11 11 16 3e 44 99 65 be 21 62 42 3e
       0.29851562 0.14654948 -0.22421747 0.18982746
000040 64 f6 2e 3e 68 b8 0c 3e 31 fe 5e bd 8a 33 15 3e
       0.17086178 0.1374222 -0.054441635 0.14570442
000050 df ec 83 3e 5e 40 8a be ac 96 78 be c4 7d 19 bd
       0.25766656 -0.27002233 -0.24276227 -0.037473455
000060 51 2a af 3e c8 fa 39 be 3f e0 6c 3e 54 05 9b bc
       0.34211972 -0.18162072 0.23132418 -0.01892344
000070 90 d0 b3 bd 77 4f 97 3c fc 4b 8f 3e 56 94 d2 be
       -0.087800145 0.018470509 0.2798766 -0.41128796
000080 a1 53 80 be 06 67 3d 3d 12 0f 29 be df 55 b0 3e
       -0.25063804 0.04624083 -0.16509655 0.34440514
000090 46 e8 6a 3e a5 fb 8e 3b 39 e3 b8 3e af a3 55 bd
       0.22940168 0.0043634945 0.36110857 -0.052158054
0000a0 21 bd a0 3e 1d 95 2e be 44 8b aa bd 97 8f 30 3e
       0.31394294 -0.1704907 -0.08327344 0.17242275
0000b0 6c 1a 8e 3c 84 0a 4e be 12 75 92 3c 8d 50 84 3d
       0.017346583 -0.20121199 0.01787809 0.06460676
0000c0 93 36 49 bf 64 7d ca 3d 49 74 93 be dd 4f 25 bd
       -0.785989 0.098871976 -0.28799656 -0.040359367
0000d0 dd 93 eb 3e 91 df 0d be 82 b4 8f bd ec 4a 8d bd
       0.46011248 -0.13854815 -0.07016851 -0.06899056
0000e0 51 91 7b be 38 d2 45 bd 0e 0d 81 be 0d e9 ac bd
       -0.24567153 -0.048296183 -0.25205272 -0.084428884
0000f0 62 88 95 be 88 8e df bd 14 d6 fa be 71 26 dc 3e
       -0.29205614 -0.109158576 -0.48991454 0.42998078
000100 d6 80 28 3e cc af c0 bc f6 2c 02 be 1d f3 11 bf
       0.16455397 -0.023521326 -0.12712464 -0.57011586
000110 54 c8 66 3e 35 c7 ba 3c 32 f4 73 be 98 b7 2b 3e
       0.22537357 0.022800067 -0.23823622 0.16769254
000120 fa ae 1a be 8e 04 0a be 5d 68 d1 bc bf 68 70 bd
       -0.15105811 -0.134783 -0.02556246 -0.058693644
000130 81 c8 38 3c 1c 80 86 be 66 d3 3d be be c7 a1 bd
       0.011278273 -0.26269615 -0.18537673 -0.07899426
000140 29 09 a6 bd 7a 50 56 be fe 54 9e be c1 57 c4 bd
       -0.08107216 -0.20929137 -0.3092422 -0.0958705
000150 27 2d e1 3e 53 80 6b 3d c2 2c d3 3d a5 e6 2d 3e
       0.4397976 0.057495426 0.10311271 0.16982515
000160 45 ac f2 3e e9 cf 19 3e 48 d0 c9 3e 8d 27 5f bd
       0.47397056 0.15020718 0.39416718 -0.054481078
000170 eb 27 e3 3d 80 b5 8e bc d8 61 6a 3e 40 a1 a6 3e
       0.11091598 -0.01742053 0.22888887 0.325449
000180 f7 c1 80 bc 61 c5 17 bd 00 80 27 be ed b8 9a bd
       -0.01571749 -0.03705347 -0.16357422 -0.07554803
000190 4b 67 ed 3e df 10 92 be 3c 9e e7 bd 3d 21 b9 bd
       0.4636787 -0.28528497 -0.11309478 -0.09039543
0001a0 95 37 3e be 36 d5 c6 bc d4 fd e0 bb fa 77 2e be
       -0.1857589 -0.024271589 -0.006866196 -0.17037955
0001b0 95 0e f1 bc 1c 24 5c 3e 86 f7 e6 bc d4 a7 b9 be
       -0.029425899 0.2149815 -0.0281942 -0.36260855
0001c0 76 46 21 3c 0a fd 82 3e 77 de 34 be 65 a8 04 bd
       0.009843459 0.25583678 -0.17662989 -0.032387156
0001d0 86 39 b6 bc 8f 75 75 3e d4 68 f8 3e 0d 22 a6 be
       -0.022244226 0.23970626 0.48517478 -0.32447854
0001e0 d3 a9 82 be 27 07 da bd fe 7c e8 bd 6b ac b1 3e
       -0.2552019 -0.106458955 -0.11351965 0.34701857
0001f0 b2 78 70 3d f9 c2 80 be 0e 8e c9 3e eb 69 a9 bd
       0.058708854 -0.25148752 0.39366192 -0.082721554
000200 f5 4f 4d be cb 8d 9a 3e 52 1e 5c be 09 70 5e bd
       -0.20050032 0.30186304 -0.21495941 -0.054306064
000210 38 f1 a5 3e a1 a3 10 bf 82 99 2a be 6f e7 38 be
       0.32410598 -0.5649968 -0.16660121 -0.18057035
000220 a6 ed 95 be 2a 5d 75 bd 53 4b c2 3d f9 7e 2d be
       -0.29282874 -0.0599033 0.09487023 -0.16942967
000230 84 12 45 3e 8c 96 ae bd d2 c5 e4 be 21 72 98 3e
       0.19245344 -0.08524808 -0.44682175 0.29774573
000240 ee 76 de 3e 42 b2 58 3d 89 87 f3 3d 60 85 a0 3c
       0.4345011 0.052904375 0.11891086 0.019594848
000250 0a c9 ac 3e 4d 7c 24 3f 70 35 0a be 04 8e 04 bf
       0.3374713 0.6425217 -0.13496947 -0.517792
000260 c2 97 d7 3b 43 62 89 be 7a c1 94 3c d4 11 13 be
       0.0065793702 -0.2683278 0.018158663 -0.1436227
000270 9f 10 9f 3e 17 d7 35 bd b3 a4 80 3e fe 57 81 3e
       0.31067368 -0.04439458 0.25125656 0.25262445
000280 20 17 77 3e 93 63 8d bc 68 2c 33 be a0 c6 f1 bd
       0.24129915 -0.017259395 -0.17497408 -0.11805463
000290 be 95 8e 3e c4 0c 6b bd 8d 0b 4a be 3d 77 4d 3c
       0.2784862 -0.05738522 -0.19730969 0.012540636
0002a0 2d c1 74 be 30 07 9c 3e d1 88 67 bd b1 2b 87 be
       -0.23901816 0.30474234 -0.056526963 -0.2640052
0002b0 ac 97 6d bd 02 6b 0d 3f 86 a7 54 3d e5 87 a1 bd
       -0.058005974 0.55241406 0.051917575 -0.07887248
0002c0 ca cc 2b be 32 91 c5 3e 6d ca 8a be c3 1b e1 3e
       -0.1677734 0.38587338 -0.27107564 0.43966493
0002d0 e4 df 3a 3e a5 86 30 be 57 84 0e bf ad 9a ea bd
       0.1824947 -0.17238863 -0.55670685 -0.11455283
0002e0 44 c1 d0 3e 52 de a1 be 26 75 0a bf 8d d9 81 3e
       0.4077245 -0.3161493 -0.54085004 0.2536129
0002f0 6f c6 69 be c8 5a ce 3e 58 d8 00 bc c9 8f 0f bf
       -0.22829603 0.40303636 -0.00786408 -0.56078774
000300 be 9f c9 be 62 51 b9 bd 1c 29 a6 3e 45 a5 75 3e
       -0.39379686 -0.09048726 0.3245324 0.23988827
000310 1a 7b 32 3e fb 2a a9 3c d7 0f 19 3d 15 56 c1 3e
       0.17429772 0.020650377 0.03736862 0.37760988
000320 64 ac 53 3e 8a 88 60 be fa 8c 83 3e 62 e8 b2 3e
       0.2067123 -0.21927086 0.25693494 0.3494292
000330 18 74 06 3e b5 f8 d4 be 7a 90 77 bd 1a 33 e8 bd
       0.13130224 -0.41595998 -0.060440518 -0.11337872
000340 5a 22 62 be 01 0f 42 bc 7d ba 08 3e 5d d4 9f bb
       -0.22083417 -0.0118443975 0.1335239 -0.0048776106
000350 fc 90 84 3c 5f d4 d7 be a1 33 c1 3e 33 67 eb be
       0.016182415 -0.42154214 0.37734702 -0.45977172
000360 52 3a 19 3d b2 ea cb bd 1b 95 ae 3e ab 3e 1f 3d
       0.037409134 -0.09956874 0.34098133 0.038878124
000370 26 ce e8 3c 35 48 08 be a7 a9 31 bd a0 9f eb 3e
       0.028418612 -0.13308795 -0.043374684 0.46020222
000380 d2 af 0a be 5c 0f c6 be 00 c8 45 3e 98 bf ea 3c
       -0.13543633 -0.38683593 0.19314575 0.028655812
000390 09 7c d2 3c 41 af 19 3d a0 93 e1 bc 1c 82 00 be
       0.02569391 0.03752065 -0.027536213 -0.12549633
0003a0 56 89 21 bf 96 0c 42 bf c9 e4 3c 3e 55 85 ed 3a
       -0.63100183 -0.75800455 0.1844665 0.0018121401
0003b0 b8 de d6 ba b2 2a 02 3f 27 2c 83 bd 69 d6 16 3e
       -0.001639328 0.508464 -0.06404906 0.14730228
0003c0 9a c4 48 be c0 0a ca be a0 49 30 3e dd 55 c0 be
       -0.19606248 -0.39461327 0.17215586 -0.37565508
0003d0 3c b9 5c be c0 c4 a7 3e 95 79 81 3e 96 44 dd 3e
       -0.21555036 0.32767296 0.25288072 0.4321639
0003e0 13 cc 6b 3e ab ed 28 bc 69 3a 7e be 9c 81 15 3e
       0.23027067 -0.010310571 -0.24826969 0.14600223
0003f0 b3 a3 e5 bd bf c4 ce be 9f f8 d3 bd a1 5b b4 3e
       -0.11212864 -0.4038448 -0.10350155 0.35226157

linear2.bias f4 [3]
000000 ef 74 8c 3e e2 5f fc bc 4c dd 29 bc
       0.27432963 -0.03080744 -0.010367703
